…
ict has been built successfully. processing embedding file ... b'195202' tokens in embedding file in total, vector size is b'300' 100%|\u2588\u2588\u2588\u2588\u2588\u2588\u2588\u2588\u2588\u2588\u2588\u2588\u2588\u2588\u2588\u2588\u2588\u2588\u2588\u2588\u2588\u2588\u2588\u2588\u2588\u2588\u2588\u2588\u2588\u2588\u2588\u2588\u2588\u2588\u2588\u2588\u2588\u2588\u2588\u2588\u2588\u2588\u2588\u2588\u2588\u2588\u2588\u2588\u2588\u2588\u2588\u2588\u2588\u2588\u2588\u2588\u2588\u2588\u2588| 195202/195202 [00:03<00:00, 55842.67it/s] finish! -------------------------------------- CNN( (word_embedding): Embedding(11723, 300) (pos1_embedding): Embedding(103, 5) (pos2_embedding): Embedding(103, 5) (conv): Conv2d(1, 256, kernel_size=(3, 310), stride=(1, 1), padding=(1, 0)) (maxpool): MaxPool2d(kernel_size=(100, 1), stride=(100, 1), padding=0, dilation=1, ceil_mode=False) (tanh): Tanh() (dropout): Dropout(p=0.5, inplace=False) (linear): Linear(in_features=256, out_features=128, bias=True) (dense): Linear(in_features=128, out_features=53, bias=True) ) traning model parameters: word_embedding.weight : torch.Size([11723, 300]) pos1_embedding.weight : torch.Size([103, 5]) pos2_embedding.weight : torch.Size([103, 5]) conv.weight : torch.Size([256, 1, 3, 310]) conv.bias : torch.Size([256]) linear.weight : torch.Size([128, 256]) linear.bias : torch.Size([128]) dense.weight : torch.Size([53, 128]) dense.b
…
fa\u7ed3\u679c: -------------------------------------- some config: data_dir = ./data output_dir = ./output embedding_path = ./embedding/glove.6B.50d.txt word_dim = 50 model_name = CNN2 mode = 1 seed = 666 cuda = 0 epoch = 500 dropout = 0.3 batch_size = 64 lr = 0.001 max_len = 256 pos_dis = 50 pos_dim = 5 hidden_size = 128 filter_num = 512 window = 3 margin_positive = 2.5 margin_negative = 0.5 gamma = 2.0 L2_decay = 0.0001 device = cuda:0 model_dir = ./output/CNN2 -------------------------------------- start to load data ... finish! -------------------------------------- CRCNN( (word_embedding): Embedding(23503, 50) (pos1_embedding): Embedding(103, 5) (pos2_embedding): Embedding(103, 5) (conv): Conv2d(1, 512, kernel_size=(3, 60), stride=(1, 1), padding=(1, 0)) (maxpool): MaxPool2d(kernel_size=(256, 1), stride=(256, 1), padding=0, dilation=1, ceil_mode=False) (tanh): Tanh() (dropout): Dropout(p=0.3, inplace=False) (dense): Linear(in_features=512, out_features=19, bias=False) ) traning model parameters: word_embedding.weight : torch.Size([23503, 50]) pos1_embedding.weight : torch.Size([103, 5]) pos2_embedding.weight : torch.Size([103, 5]) conv.weight : torch.Size([512, 1, 3, 60]) conv.bias : torch.Size([512]) dense.weight : torch.Size([19, 512]) -------------------------------------- start to train the model ... 125it [00:0
…
